models/data.pth (torch, 4799 bytes, 6 tensors)

l1.weight f4 [8, 52]
00000000: 439e 60bd a63f edbe e349 b73e cbca 913d
00000010: 6f06 613e 4d60 a73e 400e ed3e 96ed ccbd
00000020: 213b a3be c2c7 4c3d beb0 5c3f 3864 293f
00000030: 263b 033d 41ca b53e acae 1dbe 403e 693e
00000040: dba5 183f f18d da3e 58b6 333d 9c84 693e
00000050: d2c7 98be deda 663e 41d1 a93e 1eb6 8c3e
00000060: 6607 9bbd 8ef4 c93e db38 d9be 291a 3d3e
00000070: 539e 783e cc11 f43e f1ea 14be fb7b 02be
00000080: cc00 96be 1997 b2be 907f eb3e 38de 21be
00000090: e998 3c3f b2b3 923e 8cd9 59be 23b6 93bd
000000a0: 315e 49bf e44c a3be 7cff aa3e 67ff 213e
000000b0: ad72 2e3f 8dbd f5bd c7a5 ab3e e212 a43e
000000c0: e1a0 203f 22ec a63e bbe9 6c3e f399 703d
000000d0: 1e1d b1bd 5113 0dbe 5809 e53c 48aa ac3c
000000e0: 9e27 933d 015c e5bd c4b6 9d3d 5858 c13d
000000f0: fcfe febd d442 89bd 9e36 ca3d 8548 0abe
00000100: 80bd e3bb 38ef 933c 2dbd edbd 20c0 c03d
00000110: 540c 5dbd 46cd c73d 98df a63d 4505 d53d
00000120: e066 973b c44e 3e3d caf2 b5bd db2a 99bd
00000130: b428 c7bd 8099 4e3b a47d b13d aac2 a3bd
00000140: fac5 89bc 5871 93bc c59f 8dbd 0047 b6bd
00000150: f081 273d 70a9 f63c 7590 febd 5359 b9bd
00000160: 982d c0bd 00a5 d13b c87a ccbd 20a5 c23d
00000170: 9063 3a3c c805 463d f961 0b3e 4ef2 a8bd
00000180: 8cf6 913d 209e d13b 58c6 1e3d 9cfc c0bd
00000190: c8a3 fc3c 664b ca3d 0066 94ba 6072 d4bb
000001a0: 9569 18be 3bcc e53e 18eb 98be aeae 90be
000001b0: ea42 40be e8f9 98be 108a c23e 6d72 913e
000001c0: 31f6 113f 077d a6bd c9b2 c23e 4079 2a3e
000001d0: 84d1 c23e 1513 953e da08 b23e bad4 52be
000001e0: 62c9 5c3e 5356 193d 0b3a b43e e5fb 98be
000001f0: a582 543e 5fd8 98be d8f6 8abe 7ed3 44be
00000200: 62a0 d53e 3147 2f3d ceb4 f83e dd0b 823e
00000210: 9cb2 a9bd 1e17 783e c7d7 f73e 8653 a63d
00000220: 6ed8 a53e daa0 393f ce46 3e3e dc4a 7c3e
00000230: 53d0 963e 5930 223e 6759 ad3e cc08 d83e
00000240: c683 7a3e d0f9 a83e 1e33 823e 8260 33bd
00000250: aa64 5d38 05d2 463d 039a 69bc 0be7 98be
00000260: a69d febd 0291 2fbd c9d8 98be 62c0 a93d
00000270: 1b46 b23e b536 233d 0322 e1be 6048 72be
00000280: 5c34 c0be 7d98 ccbe 10dc 1a3f a45d c73b
00000290: ff2f 4d3d 2acc 13be 3de2 01bf dc6a 88be
000002a0: a27f 1bbe 12de 953d 4971 f8bd 359c b9be
000002b0: 79b0 643f b5ff e63e c398 dcbd 80f1 91be
000002c0: 1d64 d43e 3a89 bebe 1261 01bf 426d 52be
000002d0: ebfc f7bd 7278 06be 7310 b2be 63f1 99be
000002e0: 1da5 d33e 8c6d 023f 7e89 41be a6df 3e3e
000002f0: 705e 2fbd 1f58 c7bd 7afc 45be 7c74 bebd
00000300: b3d6 76be 454a b83e ab6d 06be 9ceb bebd
00000310: 8291 2f3f 4e97 6f3e 4093 ac3b 903f 0cbe
00000320: a9a5 643b 1655 edbe b7db cf3e 4542 a0be
00000330: 25c2 c8be 20e8 ab3d abcd f8be 27dd 813e
00000340: b0d1 a2be 08aa fc3e a6c1 9cbe 46a2 4cbe
00000350: e219 27be b48c b6be 7002 243f 585f 8e3e
00000360: 9e33 1f3f eab1 22be 2aa0 043f 6231 143f
00000370: f002 6e3e 0877 d93e 54f4 a13e cd36 4abe
00000380: 5889 b63e b428 a03e f2bf ca3e a2ff 91be
00000390: a198 953e db0a 91be 6cc6 8dbe 0422 87be
000003a0: 45b2 e03e 94ca c13d 47a0 0b3f a32f f43e
000003b0: 3a60 903e 250a b23e 1b79 1c3f a27b 973e
000003c0: 9ca1 a13e 1b5c 373f ff0b dc3e f670 b13e
000003d0: 7355 0c3f 2238 d53e f83f 943e e4c9 c13e
000003e0: 4b79 183e eecb 913e 2753 e53e 9b25 d0bd
000003f0: 0330 e63e 46f2 373e 6685 c23e 6289 b6be
-0.05483843 -0.46337622 0.3579856 0.07118758 0.2197511 0.3269066 0.46299934 -0.100062534
-0.3188105 0.04999519 0.8620719 0.66168547 0.03203883 0.3550587 -0.15398663 0.22777653
0.59628075 0.42686418 0.04387507 0.22804493 -0.2983995 0.22544429 0.3316746 0.27482694
-0.075697705 0.39444393 -0.4242619 0.1846701 0.24279146 0.47669828 -0.14542748 -0.12742607
-0.29297483 -0.34880903 0.4599576 -0.15807426 0.7367082 0.28652722 -0.21274394 -0.07212474
-0.7865935 -0.318946 0.33398044 0.15820085 0.6814373 -0.119990446 0.33524916 0.32045656
0.6274548 0.3260203 0.23136036 0.058740567 -0.08648132 -0.137769 0.027958557 0.02107729
0.07185291 -0.11199189 0.077008754 0.09440678 -0.12450978 -0.067021996 0.09873699 -0.13504227
-0.0069500804 0.018058404 -0.11608348 0.09411645 -0.053966835 0.0975595 0.08148116 0.10401396
0.004620418 0.046461836 -0.08884199 -0.07478877 -0.097245604 0.0031524599 0.08666542 -0.079961136
-0.016818035 -0.017998382 -0.06915239 -0.08900261 0.040895402 0.030110091 -0.12429897 -0.0905024
-0.09383696 0.0063978434 -0.09984356 0.09504151 0.011376277 0.048345357 0.13611592 -0.08249341
0.07127103 0.006397024 0.038763374 -0.094231814 0.030839816 0.09877662 -0.0011321902 -0.006483361
-0.14884026 0.44882378 -0.29866862 -0.2825827 -0.18775526 -0.29878163 0.37995958 0.28407612
0.57016283 -0.08129316 0.38027027 0.16647816 0.38050473 0.2911612 0.34772378 -0.20588961
0.21561196 0.03743584 0.35200533 -0.2987968 0.20752962 -0.29852578 -0.27141452 -0.19221303
0.41723925 0.042792503 0.48575443 0.25399676 -0.0828602 0.24227569 0.48406813 0.081213996
0.32391685 0.72511065 0.18581697 0.24637932 0.29455814 0.15838756 0.3385727 0.4219421
0.2446433 0.33003092 0.25429624 -0.04379321 5.2784257e-05 0.048540134 -0.014257911 -0.29863772
-0.12432413 -0.0428629 -0.29852894 0.08288647 0.3481911 0.039847095 -0.4397126 -0.23660421
-0.37539947 -0.3996009 0.6049204 0.006084161 0.0500946 -0.14433351 -0.5073584 -0.26644027
-0.15185407 0.07317747 -0.121309824 -0.3625199 0.89331776 0.45116964 -0.107713245 -0.28504562
0.4148263 -0.3721407 -0.5053874 -0.20549491 -0.12108787 -0.13131884 -0.34778175 -0.30066976
0.4133691 0.50948405 -0.18900105 0.18640003 -0.042814672 -0.09733605 -0.19334593 -0.092995614
-0.24105339 0.35994163 -0.13127773 -0.09322283 0.685814 0.23397562 0.005266577 -0.13696122
0.003488878 -0.46353978 0.40597317 -0.3130056 -0.3921062 0.08393884 -0.48594412 0.25364038
-0.31800604 0.49348474 -0.30616492 -0.19983777 -0.16318467 -0.35654223 0.6406622 0.27807117
0.62188137 -0.15888181 0.5180689 0.5788785 0.23243308 0.42473626 0.3163172 -0.19747467
0.3565166 0.31281054 0.39599568 -0.28515345 0.2921801 -0.28328595 -0.27690446 -0.2639314
0.4388601 0.09462467 0.5454144 0.47692594 0.28198415 0.34773365 0.6112229 0.29586512
0.3156861 0.71624917 0.42977902 0.34656495 0.54817885 0.41644388 0.28955054 0.37849343
0.1489002 0.28475899 0.44790003 -0.10163423 0.44958505 0.17963514 0.379924 -0.3565169

l1.bias f4 [8]
00000000: 2677 493f e6e3 05be 33f6 983e 1cc0 013f
00000010: 588d b63e 2df9 093f a815 083f 50e6 233f
0.7869743 -0.13075218 0.29875335 0.5068376 0.35654712 0.5389584 0.53158045 0.64023304

l2.weight f4 [8, 8]
00000000: fa6c 283e d0b6 06be fd8e 13bf f545 bd3f
00000010: 288b 30be 2752 a43f aa50 223f 3d9f 723f
00000020: b5cb 873f e016 763e 210e 9c3f 532d 663d
00000030: e9f9 a03f f38e 95bd 0444 1fbf 7470 33bf
00000040: 7938 b43f 8e3a 54be 2a42 25be 6285 053f
00000050: 9337 0e3f cb1c b73e 9cbe 89bf 3a6e d6bd
00000060: 1110 d43e 1be3 72be 7763 efbe 66ed 41bc
00000070: c1fb fdbe 2db9 973e 0a5c 543f ccb1 073f
00000080: 67bb 9e3f 0640 a6be 9ddd ffbe bd36 8abf
00000090: 7e9b 3ebe a622 c1be 7580 333f f166 083f
000000a0: 5d70 c23e 5674 43bd 500d 2bbf fffa b6be
000000b0: 491c 34bf 3986 53be 8d7b ad3e 164c 1d3f
000000c0: 76fb 6dbb 424a a73e b617 34bf 9880 61be
000000d0: 3c12 dcbe 86ee babd bc46 823f da20 3c3f
000000e0: b2f4 84bf d07d afbe c8a3 4f3f 3827 263f
000000f0: e0f1 743f 0d22 323f 81a1 3d3f f25a ce3d
0.16447821 -0.13155675 -0.5764006 1.4786974 -0.17240584 1.2837571 0.63404334 0.9477423
1.0609041 0.24032164 1.2191812 0.05619557 1.2576267 -0.07302656 -0.6221316 -0.70093465
1.4079734 -0.20725462 -0.16138521 0.5215665 0.5555355 0.35764155 -1.0761294 -0.10470243
0.41418508 -0.23719446 -0.46755573 -0.011836385 -0.49606135 0.29633465 0.8295294 0.5300567
1.2400941 -0.3247072 -0.49973765 -1.0797955 -0.18614003 -0.37721747 0.70117885 0.53282076
0.3797635 -0.04771837 -0.6681719 -0.3573837 -0.7035566 -0.2065667 0.33883324 0.6144422
-0.0036313212 0.32673842 -0.7034868 -0.22021711 -0.42982662 -0.09127526 1.0177836 0.7348763
-1.0387175 -0.34275675 0.81109285 0.64903593 0.9568157 0.6958321 0.7407456 0.1007594

l2.bias f4 [8]
00000000: 4925 4c3e 8296 f43e 11bd 4f3e 0d98 0e3f
00000010: 5b3f e53e e7dd 1e3f 592a 2a3f ebd6 4b3e
0.19936098 0.47771078 0.20286967 0.5570076 0.447749 0.62057346 0.6647087 0.19906203

l3.weight f4 [5, 8]
00000000: 58cb c2bf 2e8e 2e3f 060b 243f ce60 2ebe
00000010: ca8a 0e3f 6372 eabe c1e2 f8be 64ee 9fbf
00000020: e73d fb3e be86 f13c 1219 083f 3b7d 673c
00000030: 86d2 99bf 7b0f 15bf 38aa 6abf 50e1 d8be
00000040: df1e 713d 7563 4fbf 7cca e8be 97ea 153f
00000050: 8abe 663f 30d4 ae3e 5ece 203f 014a b2bf
00000060: 18bf a2bf 6dae 073f e428 74bf 206a 4fbf
00000070: 0609 86bf 4f69 d1be e55e afbe fb62 5f3f
00000080: 00ff 2a3f 4953 a9bf 7e3b 8dbf e8a4 873e
00000090: f3a0 abbf 494f c3be e773 a83c 17b1 213f
-1.5218306 0.681857 0.6407932 -0.17029116 0.55680525 -0.45790395 -0.486105 -1.2494626
0.49070665 0.029483195 0.53163254 0.014128978 -1.2017372 -0.58226746 -0.91665983 -0.423594
0.05886733 -0.81011134 -0.45466983 0.5856108 0.9013449 0.3414626 0.6281489 -1.3928834
-1.2714567 0.5300053 -0.95374894 -0.8102131 -1.0471504 -0.40900657 -0.34252086 0.8726041
0.6679535 -1.3228542 -1.103378 0.26493 -1.3408493 -0.38146427 0.020563079 0.6316084

l3.bias f4 [5]
00000000: 398f d53d 3b2c 063e 29a5 8a3e 2d84 b43e
00000010: 55c2 b5be
0.10427708 0.1310281 0.27079132 0.35257092 -0.35499826
