models/data.pth (torch, 5247 bytes, 6 tensors)

l1.weight f4 [8, 60]
0	0xbe8801d4	-0.26563895
1	0xbd038aa7	-0.03211465
2	0x3eb4ac30	0.3528762
3	0x3e5aaf54	0.21355945
4	0x3e9dc763	0.30816182
5	0x3edb5379	0.42837122
6	0x3f7fedba	0.99972117
7	0xbe0a9da9	-0.13536705
8	0xbde71a69	-0.11284334
9	0xbe1c420a	-0.15259567
10	0xbf30aa9a	-0.6901032
11	0xbddb73fe	-0.10715483
12	0x3f0fa225	0.5610679
13	0x3e657c1a	0.22410622
14	0xbe503091	-0.20331027
15	0xbd55331f	-0.052050706
16	0xbd829bee	-0.063773975
17	0x3e547b4d	0.2075016
18	0x3f8f36b6	1.1188571
19	0x3f29a18a	0.66262114
20	0xbdcb63a8	-0.09931117
21	0x3ef62da1	0.48081687
22	0xbe2d47de	-0.16921946
23	0x3ec9c99c	0.39411628
24	0x3ead33a9	0.33828476
25	0x3e5bb8fe	0.21457288
26	0xbe015dda	-0.12633458
27	0x3d1f0cc6	0.03883054
28	0xbdbeb8ef	-0.09312617
29	0xbe981c35	-0.2970902
30	0xbe385ea2	-0.1800485
31	0x3f377578	0.7166362
32	0x3f399d7f	0.72505945
33	0xbea288eb	-0.31745085
34	0x3e5ac545	0.21364315
35	0x3a112e76	0.0005538234
36	0xbebf8974	-0.37409556
37	0x3dc9220c	0.09820947
38	0xbe5b70f1	-0.21429802
39	0xbdf29c09	-0.118461676
40	0x3e6baa32	0.23014143
41	0xbddbb76b	-0.107283436
42	0xbdd31dfd	-0.10308454
43	0x3f33b4e5	0.701979
44	0xbe4c4a70	-0.1995027
45	0xbd5ad738	-0.053427905
46	0xbf30b50a	-0.69026244
47	0xbe82b11c	-0.2552575
48	0x3dc4c3c7	0.09607654
49	0x3ebb9fd3	0.36645374
50	0xbcb74ea0	-0.022376359
51	0xbe68d548	-0.2273761
52	0xbe559af7	-0.20859896
53	0xbe51bb4b	-0.20481603
54	0x3f1917af	0.59801763
55	0x3ebe8d63	0.37217245
56	0xbed3a8a5	-0.41339603
57	0xbc563300	-0.013073683
58	0x3ed88031	0.42285302
59	0x3cb47e00	0.022032738
60	0x3e63d7ba	0.22250262
61	0x3e8bd0de	0.2730779
62	0xbe905ee0	-0.28197384
63	0xbe886053	-0.2663599
64	0xbe7533fd	-0.23945613
65	0xbe96261e	-0.29325956
66	0xbefd7597	-0.49503776
67	0xbdb60fd7	-0.0888974
68	0xbcc428c0	-0.023945212
69	0x3e0000ef	0.12500356
70	0xbf15b01d	-0.5847185
71	0xbf30317c	-0.6882551
72	0x3f199cfa	0.6000515
73	0x3e951ea4	0.2912494
74	0x3df7f2c5	0.121068515
75	0x3eb42623	0.35185346
76	0xbd930f6b	-0.07180675
77	0xbcbc0924	-0.022953577
78	0xbefd7514	-0.49503386
79	0xbe06a72f	-0.13149713
80	0x3db5a88d	0.08870039
81	0xbebd88bc	-0.37018383
82	0x3f1bf78c	0.609246
83	0xbec6c84e	-0.38824695
84	0xbef2d242	-0.4742604
85	0xbec5e0ac	-0.38647974
86	0xbd44c4e4	-0.048039332
87	0x3e1324a7	0.1436945
88	0x3cb33bf4	0.021879174
89	0xbe9e89be	-0.30964464
90	0x3e21eda8	0.15813315
91	0xbe81b890	-0.25336123
92	0xbf0ccef4	-0.55003285
93	0xbdd109d9	-0.102069564
94	0x3f12616e	0.57179916
95	0x3d821797	0.06352156
96	0xbe1184a1	-0.1421075
97	0x3e79d29b	0.24396746
98	0xbca4ec22	-0.020132128
99	0x3e1eeca4	0.15519959
100	0x3eb1fc1d	0.3476266
101	0xbdbe25d3	-0.09284558
102	0x3e86ae76	0.26304978
103	0xbea658d2	-0.3248964
104	0x3d968153	0.073488854
105	0xbd41e2c3	-0.047335397
106	0x3f9ea7ee	1.2394998
107	0x3f04f999	0.51943356
108	0xbda01be5	-0.078178205
109	0xbebebc99	-0.37253264
110	0x3ebb0c19	0.36532667
111	0x3e34b69d	0.17647786
112	0xbe4180d9	-0.18896808
113	0xbf2e6ceb	-0.68134946
114	0xbde1acad	-0.110192634
115	0xbeb82a4d	-0.35969773
116	0x3d47c590	0.048772395
117	0x3dfb5e71	0.12273873
118	0xbead3549	-0.33829716
119	0x3ecd8d98	0.4014709
120	0xbec9c5bb	-0.3940867
121	0x3f3ecd6c	0.745322
122	0xbf07d8a9	-0.5306497
123	0xbe8bf823	-0.2733775
124	0xbe9d6fc7	-0.30749342
125	0xbf15da90	-0.58536625
126	0x3f5bdeb8	0.85886717
127	0x3ed78300	0.42092133
128	0x3f307a2f	0.6893644
129	0x3efe2f90	0.49645662
130	0xbf022be1	-0.50848204
131	0xbf143d6b	-0.57906216
132	0x3f559f1c	0.83445907
133	0x3f13b318	0.5769515
134	0x3ef91a05	0.48652664
135	0x3f04c8a0	0.5186863
136	0x3e9cc09a	0.30615693
137	0xbc6c9ee3	-0.014442178
138	0x3f557c3e	0.83392704
139	0x3e643bb7	0.22288404
140	0x3e9245ec	0.2856897
141	0xbeeb8b9a	-0.46004945
142	0x3b94e9d4	0.004544476
143	0xbf0e2bbc	-0.55535483
144	0xbf0e8e2d	-0.55685693
145	0xbeecdb59	-0.462611
146	0x3f1f8ce6	0.6232437
147	0x3e8420a9	0.25806168
148	0x3e73830f	0.23780464
149	0x3f3e85e1	0.74423033
150	0x3eca46fb	0.3950728
151	0x3ed78960	0.42096996
152	0x3ef5ab05	0.4798204
153	0x3f30e543	0.69099826
154	0xbe09698c	-0.13419169
155	0x3ef1f05a	0.47253686
156	0x3f691b32	0.9105712
157	0x3edba02c	0.4289564
158	0x3ef85aa9	0.48506668
159	0x3e757e04	0.23973852
160	0x3f251d47	0.644978
161	0xbdb9ae8c	-0.09066495
162	0x3e8a9528	0.27066922
163	0x3ecdc321	0.40187934
164	0x3eeba5e4	0.46025002
165	0x3f0cf901	0.5506745
166	0xbdfc2b97	-0.123130016
167	0xbd9fac56	-0.07796542
168	0x3ef93d30	0.48679495
169	0xbe65ba8b	-0.22434442
170	0x3e9e9619	0.3097389
171	0x3fa6cf9f	1.3032111
172	0xbe5ca0d4	-0.21545726
173	0x3d43f515	0.04784115
174	0x3ee693f7	0.45034763
175	0xbf0ace42	-0.54220974
176	0xbdca646a	-0.09882434
177	0xbdc09fb7	-0.09405463
178	0xbf0f0e60	-0.5588131
179	0x3e813d05	0.25241867
180	0x3f1dee69	0.6169191
181	0xbd99bc19	-0.0750658
182	0xbf1ff6e3	-0.62486094
183	0xbe8e2fea	-0.2777093
184	0xbe812f3d	-0.25231352
185	0xbead2dca	-0.33823997
186	0x3f0bfb47	0.54680294
187	0xbd87db82	-0.06633665
188	0xbda10c94	-0.07863727
189	0x3f07fcda	0.53120196
190	0x3f96ef4f	1.1791781
191	0x3d90fc60	0.07079387
192	0xbf230890	-0.6368494
193	0xbf18ce94	-0.59690213
194	0xbe97db04	-0.29659283
195	0xbe7bef96	-0.24603114
196	0xbe49e883	-0.19717602
197	0xbf5f139c	-0.87139297
198	0x3f044c4c	0.5167892
199	0x3ead6d40	0.33872414
200	0xbe156dc4	-0.14592654
201	0xbf1a152b	-0.6018855
202	0x3e7c3d72	0.24632815
203	0xbf09820b	-0.53714055
204	0xbf154de4	-0.58321977
205	0xbe9d5042	-0.30725294
206	0xbe73e825	-0.23819025
207	0x3f0a4e98	0.54026175
208	0x3f213b95	0.6298154
209	0xbe8ce25a	-0.27516443
210	0xbeb92228	-0.36158872
211	0x3ebd6562	0.3699141
212	0x3ebf8142	0.37403303
213	0xbe8e5528	-0.27799344
214	0x3ea5bf19	0.32372358
215	0xbe7e013c	-0.24805158
216	0xbe8ca5cf	-0.27470252
217	0xbf071ba8	-0.52776575
218	0xbe5683c5	-0.20948704
219	0x3f433a5d	0.7626093
220	0xbf343d67	-0.7040619
221	0x3f0e3e9c	0.55564284
222	0x3f4e0c29	0.80487305
223	0x3ecf2a29	0.40461853
224	0xbe1ce50b	-0.15321748
225	0xbe33c271	-0.17554642
226	0x3f0b59f4	0.5443413
227	0x3eb3e644	0.35136616
228	0x3f208cda	0.6271492
229	0xbe9e8b40	-0.30965614
230	0xbea761f1	-0.3269191
231	0x3f8f5fd5	1.1201121
232	0x3f6250f5	0.8840478
233	0xbf210643	-0.6290018
234	0x3ed0cc78	0.40780997
235	0xbf0da2a4	-0.55326295
236	0x3ef8b0ce	0.4857239
237	0xbe12568c	-0.14290828
238	0xbf0f08d3	-0.5587284
239	0x3e67dd89	0.22643103
240	0x3e121fb5	0.14269908
241	0xbedf875b	-0.43657956
242	0x3f0bfdfe	0.54684436
243	0x3ee2409c	0.44189918
244	0x3edf7704	0.4364549
245	0x3f0d1b0b	0.5511939
246	0x3f32ba01	0.6981507
247	0x3c195e42	0.009360852
248	0xbf013973	-0.50478286
249	0x3e98427f	0.29738232
250	0x3f2923ba	0.6607014
251	0x3f2bf56f	0.67171377
252	0xbf1aae71	-0.60422426
253	0xbe468835	-0.19387896
254	0xbd8b47ec	-0.068008274
255	0xbe9bfc77	-0.30466053

l1.bias f4 [8]
0	0x3f30b1fe	0.69021595
1	0x3efd822e	0.49513382
2	0x3f15da00	0.58535767
3	0x3f4cf2de	0.80058086
4	0x3f66ec34	0.9020417
5	0x3f0ae053	0.5424854
6	0x3ef7bf15	0.48387972
7	0x3f41fe2b	0.75778455

l2.weight f4 [8, 8]
0	0xbe22b9ae	-0.15891144
1	0x3fb6ace7	1.4271516
2	0x3f918786	1.1369483
3	0x3faaa575	1.3331743
4	0xbf3da046	-0.7407268
5	0xbea6fd4c	-0.32615125
6	0x3e9b04eb	0.3027719
7	0x3f7d20a4	0.9887793
8	0x3fd9e85e	1.7024038
9	0xbed1e8ba	-0.4099787
10	0x3ed9bc13	0.42526302
11	0xbf55b325	-0.8347648
12	0x3f630bf5	0.8869012
13	0x3f87ca61	1.0608636
14	0x3fa0d604	1.2565312
15	0x3e1cbd24	0.15306526
16	0xbeb7088b	-0.35748705
17	0x3ed2c71b	0.4116753
18	0xbe3b7a96	-0.18308482
19	0xbf6d34e1	-0.9265881
20	0x3f017e96	0.5058378
21	0x3f2e2705	0.6802829
22	0x3f4dd240	0.8039894
23	0x3f702971	0.93813235
24	0xbf181ec3	-0.5942194
25	0xbe856696	-0.2605483
26	0x3f64628f	0.8921289
27	0xbf72da24	-0.94864106
28	0xbf872041	-1.0556718
29	0xb9e7b2d7	-0.00044193
30	0xbeda4b7a	-0.4263571
31	0x3fa03f92	1.25194
32	0x3c2ad1c6	0.01042599
33	0x3fb1fbeb	1.3905004
34	0xbf4967ac	-0.78673816
35	0xbf082488	-0.5318074
36	0x3e28a10a	0.16467682
37	0x3fb24e96	1.3930233
38	0x3f80e8e0	1.0071068
39	0x3effbb2a	0.49947482
40	0xbe377c21	-0.17918445
41	0x3f8001ae	1.0000513
42	0x3fc6c189	1.5527812
43	0x3e3e89ca	0.1860725
44	0xbf49840c	-0.7871711
45	0xbe1fdfa3	-0.15612654
46	0x3f090fec	0.5353992
47	0x3f85a019	1.0439483
48	0x3d6034d8	0.054737896
49	0xbdc5f65c	-0.0966613
50	0x3e26fe66	0.16307983
51	0xbe6bb2ef	-0.23017476
52	0xbe5dde6e	-0.21666881
53	0xbeacde92	-0.33763558
54	0xbe1ddc77	-0.15416132
55	0xbe2977bb	-0.1654958
56	0x3edf6a87	0.4363596
57	0xbf875174	-1.0571733
58	0xbeb2161c	-0.34782493
59	0x3f910bf0	1.1331768
60	0x3fee30b1	1.860861
61	0xbdbced22	-0.09224917
62	0x3df22740	0.118238926
63	0xbe05e010	-0.13073754

l2.bias f4 [8]
0	0x3ec17ad2	0.37789017
1	0x3e6824c1	0.2267027
2	0x3ea91f46	0.33031672
3	0x3e359d9f	0.17735909
4	0x3f1d6b62	0.6149198
5	0x3ed6672c	0.4187559
6	0xbea9391d	-0.33051386
7	0x3f890571	1.0704786

l3.weight f4 [7, 8]
0	0x3eb97b65	0.36226955
1	0xbfe511cf	-1.789606
2	0xbf49fbd9	-0.78899914
3	0xbf394c65	-0.72382194
4	0xbf270462	-0.6524106
5	0xbfb86d32	-1.4408324
6	0xbe5661a4	-0.20935684
7	0x3f9a81c9	1.2070857
8	0x3f67c345	0.9053233
9	0xbf9a4263	-1.205151
10	0xbfabf566	-1.3434265
11	0xbf8a27eb	-1.0793432
12	0xbfcb825f	-1.5899161
13	0x3f18856f	0.59578604
14	0xbe9fcfcd	-0.31213227
15	0xbe30d96e	-0.17270443
16	0xbe262e99	-0.16228713
17	0x3f30369a	0.68833315
18	0x3f0e2b0c	0.55534434
19	0xbf208626	-0.62704694
20	0x3ed77f9f	0.42089555
21	0x3e2ef06c	0.17083901
22	0xbe6086b6	-0.21926388
23	0xbfb7c0aa	-1.4355671
24	0xbe40d2ad	-0.18830366
25	0x3f79362a	0.9734827
26	0xbfa3c78c	-1.2795272
27	0xbf80eb97	-1.0071896
28	0xbff25bf1	-1.8934308
29	0xbe0bf6a8	-0.1366831
30	0xbd809a68	-0.06279451
31	0x3e87d7b9	0.2653177
32	0xbfca37ce	-1.579828
33	0x3f488132	0.78322136
34	0x3f257234	0.64627385
35	0xbfc58c2d	-1.5433403
36	0x3f7ed18f	0.9953851
37	0xbf870a24	-1.054997
38	0xbe8823a7	-0.265897
39	0x3d6afe77	0.057371583
40	0xbda62219	-0.08111972
41	0xbf30bfff	-0.6904296
42	0x3e886ad3	0.26644
43	0x3f84d5ba	1.0377724
44	0xbf05358f	-0.5203485
45	0x3f01afc7	0.5065884
46	0xbe49a282	-0.19690898
47	0xbf812f27	-1.0092515
48	0x3f28ccb0	0.6593733
49	0xbfe49d9f	-1.7860602
50	0x3e1df242	0.15424445
51	0xbfb1f50f	-1.3902911
52	0x3f679cd3	0.9047367
53	0x3e98b5f8	0.2982633
54	0x3dd268b4	0.10273877
55	0xbfa92496	-1.321429

l3.bias f4 [7]
0	0x3ebc67d8	0.36797976
1	0x3e0a445b	0.13502638
2	0xbf005205	-0.5012515
3	0x3e54c2f1	0.20777489
4	0x3ed3b526	0.41349143
5	0x3d87300b	0.0660096
6	0x3d9fab5b	0.07796355
