models/data.pth (torch, 5055 bytes, 6 tensors)

l1.weight f4 [8, 57]
000000 b5 3e 64 3e 34 85 87 3e 50 f3 cc be 12 1f be bd
       0.22289546 0.26468813 -0.40029383 -0.0928327
000010 b7 da 5b be ab ee df be 88 30 31 3f c6 61 96 3c
       -0.21470152 -0.43736777 0.6921468 0.018357169
000020 8d 17 4c 3e f9 60 ba 3e 7a 3f 2b be 3a 9d e4 be
       0.19930859 0.3640211 -0.16723433 -0.44651204
000030 3e 73 b7 be ad 28 76 bd 06 d8 ac bc 78 3b 38 be
       -0.3583011 -0.060097385 -0.021099102 -0.17991436
000040 10 ab 6c be 42 c5 50 3f 6a 5a ce 3e 78 66 ef 3d
       -0.2311213 0.8155099 0.40303355 0.11689466
000050 b0 8c e4 be a0 ab 0d 3f 58 ea c7 be 33 88 e4 be
       -0.44638586 0.55340004 -0.39045978 -0.44635162
000060 ba 30 e4 be 29 26 0d be c3 55 10 3d da f1 af 3e
       -0.44568425 -0.13784088 0.03523804 0.34364206
000070 2c 69 02 3e 90 89 c3 bd 84 6d f2 3e 72 85 df 3d
       0.12735432 -0.09547722 0.4734918 0.109141245
000080 e9 59 7b bd 4d 73 96 3e 42 2e 3c 3d 05 9c 3a bd
       -0.061365042 0.29384843 0.045942552 -0.045558948
000090 ca 3c bf be b5 c5 ff bc 6f 36 c5 3e 19 87 b3 be
       -0.37351066 -0.031222204 0.38518092 -0.3506401
0000a0 41 b0 4f 3e de 58 8e 3e be 41 47 be 96 dd b3 3d
       0.2028208 0.27802175 -0.19458672 0.087824985
0000b0 0c 65 4d 3f d9 33 1f 3f 64 d8 56 3e db a4 80 be
       0.8023231 0.6218849 0.20980984 -0.25125775
0000c0 f7 2b 97 be 56 87 47 3f 10 92 d2 be 4c 0b fc 3e
       -0.2952573 0.7794088 -0.41127062 0.4922737
0000d0 5b 8d e4 be 90 3a 5b 3d 8f cb 8c bd 1f 1a e3 be
       -0.44639096 0.053522646 -0.06874763 -0.44355866
0000e0 43 08 a7 3e 5f 02 26 3e f4 e5 e0 be 2f 8d ca 3e
       0.3262349 0.16211842 -0.4392544 0.3956084
0000f0 e6 08 e3 3e 38 01 ee 3e 57 08 fa 3e 86 cf 07 3e
       0.44342726 0.46485305 0.48834488 0.13262758
000100 de 90 7d 3d 14 98 ed be 34 84 1f be f4 58 da 3e
       0.061905734 -0.4640509 -0.15577775 0.4264599
000110 e9 74 56 3f 0e 6c 19 3f 1c 29 84 3e d5 27 7c 3e
       0.8377214 0.59930503 0.25812614 0.2462457
000120 66 1d 31 be 42 eb d8 3e 83 ae fc 3c 3c 15 d7 3d
       -0.17296371 0.42366987 0.030844932 0.10502097
000130 d9 77 39 be c3 10 06 3f 2e 9f 57 be 6d 2e ed 3e
       -0.18112125 0.52369326 -0.21056816 0.46324483
000140 06 a4 d9 3e d1 1d 8f 3e 75 4c 33 be 85 c7 93 3e
       0.42507952 0.27952436 -0.17509635 0.2886316
000150 65 90 cd be 0c b6 f6 be 8e d1 31 3e c3 7f 5d 3e
       -0.40149227 -0.48185766 0.17365095 0.21630768
000160 03 8c ce 3d f9 b7 81 be 9b d3 ab 3e d5 ac 17 be
       0.10085299 -0.25335672 0.3355988 -0.14812024
000170 f9 42 35 bf b5 18 e9 3e 87 82 31 be dd 95 24 be
       -0.7080532 0.45526662 -0.17334948 -0.16072793
000180 13 51 0d 3f 58 be e4 bd a1 12 94 3d 35 08 a7 3c
       0.55201834 -0.11169118 0.07230116 0.020389656
000190 1d cb 32 be ea 06 b3 be 54 b1 61 be 36 80 f5 3d
       -0.17460294 -0.34966213 -0.22040302 0.11987345
0001a0 0b 08 cd 3e 77 17 ce 3e 01 27 61 bf 49 3c 0c 3e
       0.400452 0.40252277 -0.8795014 0.13694872
0001b0 8f 08 0f 3e 7d 74 00 3f fb 1c 19 3f 71 1f b6 3e
       0.13968109 0.50177747 0.59809846 0.35570863
0001c0 b4 c2 e8 3e 99 40 9d 3e 74 1c 1e 3f d6 38 87 3d
       0.45461047 0.30713347 0.61762166 0.066026375
0001d0 00 54 ea 3e e0 17 fd 3e 39 64 f2 3e eb 45 ff 3e
       0.45767212 0.49432278 0.4734209 0.4985803
0001e0 54 70 28 bf 62 fb f5 bd 23 f1 cb be 5d 5c dc 3e
       -0.657964 -0.12010838 -0.3983241 0.43039218
0001f0 31 ba b7 3e 50 4b 30 bf 89 e7 a4 be 4e 07 5c be
       0.3588424 -0.6886492 -0.32207897 -0.21487162
000200 95 4f 86 be 64 3f 5d bd 3b b5 bf 3e ce 99 2e bf
       -0.2623259 -0.054015532 0.37442955 -0.6820344
000210 ba 56 85 be c6 ab 95 bd af dc 01 3f 42 b7 df 3d
       -0.2604273 -0.07308154 0.5072736 0.109236255
000220 df 46 05 3f b2 1e fe 3e 22 00 ae 3e ab 27 76 be
       0.52061266 0.49632794 0.33984476 -0.2403857
000230 a0 49 bb bc c2 dc a7 3e 6b 3e a6 be 00 a0 d8 bd
       -0.022862256 0.32785612 -0.32469496 -0.105773926
000240 6c 6a c1 bd 33 a6 de be a8 b0 3c be 76 c5 7c 3e
       -0.094441265 -0.43486175 -0.18426764 0.246847
000250 bb 99 a3 bd f8 56 c9 be e9 75 bf be 35 4f 7e be
       -0.07988306 -0.39324164 -0.37394646 -0.24834903
000260 2b 21 ce 3e bd f8 e5 be 87 9a ae 3e 8d e9 90 be
       0.4025968 -0.44916335 0.3410227 -0.28303185
000270 46 e4 11 be 43 59 a2 3c 6a 83 3e 3f 51 87 10 bd
       -0.14247236 0.019817954 0.7441927 -0.035285298
000280 fd e3 81 3d 41 2e b2 3e 0d 8e a4 be 9e 9c 43 3f
       0.063423134 0.34800914 -0.32139626 0.76410854
000290 ad d5 27 3e f0 d2 aa be 5c b8 02 3f 16 a8 89 3e
       0.16390105 -0.33364058 0.5106256 0.26886052
0002a0 8c a5 e4 bd 89 9f 04 3f f5 ea 0d 3e 52 f6 11 be
       -0.11164388 0.5180593 0.1385916 -0.1425412
0002b0 bc b2 69 3e 28 a3 89 be 89 b0 09 be c3 f8 c1 bd
       0.22822088 -0.2688229 -0.13446249 -0.09471276
0002c0 92 c5 9a be a6 eb 46 3f 35 0e cf 3c a3 e0 b6 3e
       -0.3022886 0.7770332 0.02527533 0.3571826
0002d0 ea 27 83 3e 5b 6c e6 bd f8 8e e3 be 71 7e 8a be
       0.2561639 -0.11251136 -0.44445014 -0.27049592
0002e0 96 6a be 3d 20 a6 05 bd cb 32 b0 3d bd ed fa bd
       0.092976734 -0.032629132 0.08603438 -0.12252376
0002f0 0f 76 0b 3f c0 55 6d 3e ba 26 b0 3d 7f 83 9e be
       0.5447702 0.23177242 0.086011365 -0.309597
000300 28 5a 36 bd f7 ab 99 be ca fb 60 be ad a9 aa be
       -0.044519573 -0.3001401 -0.2197105 -0.33332577
000310 57 a8 2f 3e 10 9e e7 3d 54 a1 66 3e ac 06 95 3e
       0.1715406 0.11309445 0.2252248 0.29106653
000320 bd 59 88 3e 63 3d 76 3e 53 0b 2d 3f 08 e8 a2 3e
       0.26630965 0.24046855 0.67595404 0.3181765
000330 f0 11 2d bc 47 2c bb 3d d0 87 a4 3e a5 ef ae be
       -0.010563359 0.091393046 0.32134867 -0.3416721
000340 d8 3c 6b 3e 62 13 fd 3e d4 22 32 be 08 9f dc 3e
       0.22972429 0.4942885 -0.17396098 0.4309008
000350 23 21 17 3f 61 12 9b 3e b5 23 b4 3d 06 b9 17 bf
       0.5903494 0.3028746 0.08795873 -0.592667
000360 b9 1b 84 be 2a 48 ef 3e 30 0f 8b be b2 be f2 be
       -0.258024 0.46734744 -0.27160025 -0.47411114
000370 88 2b 2f 3f 91 38 d2 bd f5 f6 59 3e a7 cd 91 be
       0.684258 -0.102646954 0.21285613 -0.28477213
000380 d1 91 89 3c 79 98 2e bd e1 8d 92 be 16 c7 17 3e
       0.016793163 -0.042625878 -0.2862387 0.14822039
000390 71 b3 ee 3e 42 dd fb bd 57 23 18 3f 68 e2 71 3e
       0.46621278 -0.12298061 0.59428924 0.23621523
0003a0 99 0d ce 3e cf 3f a9 3e 82 73 29 bf ee 43 a0 bd
       0.4024475 0.33056495 -0.66191876 -0.078254566
0003b0 e5 d1 ee be e1 41 c4 bd 24 a3 82 3e aa c0 25 3f
       -0.46644512 -0.09582878 0.2551509 0.6474711
0003c0 08 6e e5 3e d8 9d ba 3d 62 19 c6 3e b4 c3 65 be
       0.4481051 0.091121376 0.3869124 -0.22437936
0003d0 15 35 d8 3e 11 7a 34 bf 67 05 cd be 5f 46 02 be
       0.42227998 -0.7049876 -0.40043184 -0.12722157
0003e0 a2 d2 c1 3e 3e 41 72 3e 5b 7d 03 3f 4f 66 0f 3f
       0.37856013 0.236577 0.5136315 0.56015486
0003f0 08 5e a2 3e 28 6d f9 3c 2d 25 ed 3e 29 d0 cf be
       0.31712365 0.030447558 0.46317425 -0.405885

l1.bias f4 [8]
000000 97 8b e4 3e 8d 81 84 3f dc 4a 30 3f 5e 8d e3 3e
       0.4463775 1.0352036 0.68864226 0.44443792
000010 af 3c 42 3f bc bd c6 3e b0 65 f1 3e 33 4e 02 3f
       0.75873846 0.3881663 0.47147894 0.5090057

l2.weight f4 [8, 8]
000000 e8 45 cb be f7 53 95 3f 18 76 41 3f 89 66 85 bf
       -0.39701772 1.1666249 0.7557082 -1.0421916
000010 72 51 9b 3f 89 0c e2 bd a8 40 0e 3f 4d b7 5e be
       1.213423 -0.11037547 0.5556741 -0.21749611
000020 20 7f d9 bd 88 6f 18 3f bc 8e a2 bf 6e 7a 4b 3f
       -0.1061995 0.59545183 -1.2699809 0.7948369
000030 e6 eb 00 bd bd 9e 89 3f 65 27 b2 3e c8 31 0d 3f
       -0.03147497 1.0751568 0.3479568 0.55154085
000040 09 dc aa 3f 32 b9 fa bd 60 fa 37 bd 19 74 ab 3f
       1.3348399 -0.122423545 -0.04491651 1.3394805
000050 82 b5 be be b6 5c ff 3e e1 0c d4 3e 8e b5 f0 3e
       -0.37247854 0.4987542 0.41416076 0.47013515
000060 f4 ee 5a 3f c7 b9 56 bf 70 86 91 3f e2 49 3b 3d
       0.85520864 -0.83877224 1.1369152 0.045724757
000070 f0 49 26 be 2f d2 c1 3e 13 ef 8e 3f 50 55 69 3f
       -0.16239142 0.3785567 1.116671 0.911458
000080 35 91 0f bf 76 0d 00 3e e9 73 3b bf d8 bc c5 bd
       -0.56080943 0.12505135 -0.7322374 -0.0965516
000090 51 48 99 3e e0 2a 68 3f 9c ee 24 3f 91 09 44 3f
       0.29937986 0.9069042 0.6442659 0.765771
0000a0 14 8f b3 3d 60 90 1d be d2 ef 3c be 5a bd 8b 3e
       0.08767524 -0.15387106 -0.18450859 0.272929
0000b0 ff 0e 55 be e5 b2 df 3c eb 78 b2 be da 24 6c be
       -0.20806502 0.027306983 -0.34857878 -0.23060933
0000c0 22 86 85 3f 10 2b ec 3e 05 d4 96 be ca 15 61 3e
       1.0431559 0.46126604 -0.29458633 0.21980968
0000d0 03 17 0d be b1 ac 7a 3f 31 ee 2c 3e be 1d 9e bf
       -0.1377831 0.97919756 0.16887738 -1.2352827
0000e0 e6 2f 4d bd c0 53 26 3f 72 71 89 3f 2e 42 53 3f
       -0.050094508 0.6497154 1.0737746 0.8252286
0000f0 47 ea ab 3d 4d cd 51 bf 94 dc 96 bf 47 e2 89 3f
       0.08394294 -0.8195389 -1.1786065 1.0772179

l2.bias f4 [8]
000000 fb f0 1c 3f 8b d5 81 3e 10 8c 5a 3e f1 9d cb bd
       0.61305207 0.25358233 0.21342492 -0.09942234
000010 2b 21 4f bc 64 80 9b be f8 03 b6 3e 08 f9 2b 3f
       -0.012642185 -0.30371392 0.35549903 0.67176867

l3.weight f4 [6, 8]
000000 fc 33 8c bf ac 0b 42 bf 88 47 f7 3e 7b 39 10 3f
       -1.0953364 -0.7579906 0.48296762 0.5633771
000010 6e de 8b bf ea ea 2f 3e 18 d2 a3 bf 4d d5 33 3f
       -1.0927255 0.17179456 -1.279849 0.70247346
000020 a2 b3 a6 3e 09 bd 38 3f c5 8e 39 bf 0d 6a 91 bf
       0.32558924 0.72163445 -0.72483474 -1.1360489
000030 04 12 4f 3f 2e 0a fd 3d b0 ed 1d be a1 a4 1e bf
       0.80886865 0.12355457 -0.15422702 -0.61969954
000040 64 9b 5d bf e9 f5 09 3f 97 1d 07 3f b3 c3 66 bf
       -0.8656523 0.53890854 0.52779526 -0.90142363
000050 8e 82 bf bf 39 7f 39 3c 26 b6 8a 3f 71 56 78 3d
       -1.4961717 0.011321836 1.0836837 0.060629312
000060 d6 88 74 3f 8c 9c 93 bf 64 a0 a2 bf 7d 11 3f bf
       0.95521295 -1.1532149 -1.2705197 -0.7463606
000070 6e 09 89 bf 65 02 60 be 4e 5e cc bf 88 22 61 3f
       -1.0706003 -0.21875913 -1.596628 0.87943316
000080 c5 d8 96 bf 23 87 27 3f 87 cb db bd 0f 08 e7 3e
       -1.1784903 0.6544058 -0.10732179 0.45123336
000090 1c 5f 67 3f 3d be 79 3e 7a d3 84 bf 67 48 1c bf
       0.903795 0.24388976 -1.0377038 -0.6104798
0000a0 a0 25 c4 3e 6b 44 8a bf 8e e9 38 3d 95 8c 19 3f
       0.38309956 -1.080213 0.04514461 0.59980136
0000b0 3e 4c 4e bf 9d b0 5d be 17 71 05 3f 00 a3 7a bf
       -0.80585086 -0.21649404 0.52125686 -0.9790497

l3.bias f4 [6]
000000 ea 14 a6 bc 69 6c 1b be 55 4f a4 3e b5 47 9a 3e
       -0.020273644 -0.15178074 0.32091776 0.30132833
000010 54 fc a1 bb dd 14 81 be
       -0.00494341 -0.2521123
